worktaskan/TopDataScience/checkpoint.pth (torch_old, 3540 bytes, 8 tensors)

net.0.weight f8 [4, 15]
-0.16611610352993011 -0.18449263274669647 -0.06695866584777832 0.19111564755439758 0.20873776078224182 -0.16530829668045044 0.009952068328857422 -0.013666555285453796
0.008562594652175903 -0.023721516132354736 0.026361733675003052 -0.05177651345729828 -0.1510205864906311 0.19065982103347778 -0.13356903195381165 -1.3218700367093046
-0.3016945752734776 -1.864710519540473 -0.3586894105775677 -3.706260271396648 -0.12375937777448108 -0.22094966370810343 -1.5761945239136632 -2.6964001450302044
-1.6899155364407967 -1.7371216290971665 -293.70414788397875 -0.7573844843894015 -2.3235958374109966 -25.600392237454894 -0.25767117738723755 0.18494588136672974
-0.1589406132698059 -0.045343369245529175 -0.169880673289299 0.20795470476150513 0.23820698261260986 0.1918797492980957 0.019050568342208862 0.0964093804359436
0.026167750358581543 -0.1395341008901596 0.23597592115402222 -0.07295221090316772 0.08174401521682739 -0.06755576512156182 -0.17365771389310516 -0.16767682909361553
0.20123158558298782 -0.008946667573060129 -0.23065837266566339 0.06178642588912635 0.017928867787985376 -0.05898325175833062 -0.2450804917862967 -0.08721093691625047
-15.045922896935426 0.006009765539414953 -0.030755917882743077 -0.4780917181461613
00000000: 0000 00e0 4a43 c5bf 0000 0060 749d c7bf
00000010: 0000 0000 3424 b1bf 0000 0040 7a76 c83f
00000020: 0000 0040 ebb7 ca3f 0000 0080 d228 c5bf
00000030: 0000 0000 c061 843f 0000 0000 36fd 8bbf
00000040: 0000 0000 4489 813f 0000 0000 744a 98bf
00000050: 0000 0000 92fe 9a3f 0000 0080 7382 aabf
00000060: 0000 0080 a454 c3bf 0000 0080 8a67 c83f
00000070: 0000 0040 ca18 c1bf 18a9 1332 6126 f5bf
00000080: 5788 8bc3 f64e d3bf 9eef 9eb2 dad5 fdbf
00000090: f389 f66d c4f4 d6bf c9e6 00c9 6ba6 0dc0
000000a0: 575d 1dd0 b1ae bfbf d820 d81d 1448 ccbf
000000b0: de7e c5bf 1738 f9bf d2ac 3e3d 3a92 05c0
000000c0: 903f a0df e409 fbbf 5c58 a20c 40cb fbbf
000000d0: c853 9230 445b 72c0 e068 de62 7e3c e8bf
000000e0: 6c6a 166a b996 02c0 1ba4 404e b399 39c0
000000f0: 0000 0040 af7d d0bf 0000 0080 4eac c73f
00000100: 0000 0080 2a58 c4bf 0000 0000 3f37 a7bf
00000110: 0000 0060 a6be c5bf 0000 0080 429e ca3f
00000120: 0000 0000 917d ce3f 0000 0000 848f c83f
00000130: 0000 0000 fe81 933f 0000 0000 49ae b83f
00000140: 0000 0000 b8cb 9a3f 0000 00e0 40dc c1bf
00000150: 0000 0080 7534 ce3f 0000 0000 ffac b2bf
00000160: 0000 0000 2ded b43f 2976 daa9 554b b1bf
00000170: c53b ef7c 6a3a c6bf 0a85 a030 6f76 c5bf
00000180: f025 80e3 f4c1 c93f a668 1365 a152 82bf
00000190: b5e4 92ab 3686 cdbf 06a1 0f6d 78a2 af3f
000001a0: 75fe 36f3 f15b 923f bea5 a082 0d33 aebf
000001b0: fe0b 8e2c cc5e cfbf 17a8 e8b9 7453 b6bf
000001c0: 52f3 b834 8317 2ec0 3bb5 2c27 b29d 783f
000001d0: d3ff dbb5 7a7e 9fbf 1147 7b01 0e99 debf

net.0.bias f8 [4]
-0.11922663450241089 -0.38097878495901094 -0.12883999943733215 0.22484537932482523
00000000: 0000 0000 a385 bebf e899 77d7 f461 d8bf
00000010: 0000 0040 d47d c0bf e6ac 6dbf bbc7 cc3f

net.2.weight f8 [8, 4]
-0.4811921715736389 -0.48591727018356323 0.07780694961547852 -0.0893893837928772 -0.3559916019439697 -0.4464218020439148 -0.4183729887008667 0.15074491500854492
-0.41216111183166504 -0.2314671277999878 -0.1782403588294983 0.4028381109237671 0.11496186256408691 65.01676635013686 0.27302372455596924 0.5343917354284939
0.4781342148780823 -101.41003583714979 -0.0727950930595398 0.07123131589719199 -0.16549211740493774 -0.14117401838302612 -0.3204038143157959 -0.23230630159378052
-0.4517059922218323 54.854760305849396 0.3588908314704895 0.16139262852858924 -0.3198722004890442 -86.97432863090974 -0.027529895305633545 -0.3748414073731609
00000000: 0000 0040 dacb debf 0000 00c0 4419 dfbf
00000010: 0000 0000 28eb b33f 0000 0000 39e2 b6bf
00000020: 0000 0000 91c8 d6bf 0000 00c0 2c92 dcbf
00000030: 0000 0080 9fc6 dabf 0000 0000 9c4b c33f
00000040: 0000 0000 d960 dabf 0000 0000 b7a0 cdbf
00000050: 0000 0080 94d0 c6bf 0000 0080 19c8 d93f
00000060: 0000 0000 246e bd3f b660 2bb3 1241 5040
00000070: 0000 0080 3879 d13f cc60 5db2 bc19 e13f
00000080: 0000 0040 c099 de3f c4af f306 3e5a 59c0
00000090: 0000 0000 b3a2 b2bf 7fbf 3a2c 373c b23f
000000a0: 0000 0080 d82e c5bf 0000 0080 fd11 c2bf
000000b0: 0000 0000 7f81 d4bf 0000 0080 36bc cdbf
000000c0: 0000 0040 c0e8 dcbf 64c5 23c9 686d 4b40
000000d0: 0000 0040 11f8 d63f 1b42 ac7e 83a8 c43f
000000e0: 0000 0040 c978 d4bf 1554 7966 5bbe 55c0
000000f0: 0000 0000 cc30 9cbf 7fad 76d0 66fd d7bf

net.2.bias f8 [8]
-0.48263221979141235 -0.03781998157501221 -93.57997062823945 -30172.14007812625 -0.44989809387032237 -102.50159340654491 -15109.70782947085 -0.08910680128181298
00000000: 0000 0040 72e3 debf 0000 0000 245d a3bf
00000010: 753b 203d 1e65 57c0 c83e 0af7 0877 ddc0
00000020: 612b ed5f 21cb dcbf fa3f 3b1b 1aa0 59c0
00000030: 39f6 279a da82 cdc0 5c47 5b0d b4cf b6bf

net.4.weight f8 [16, 8]
0.09508273005485535 -0.027264446020126343 0.02016347646713257 0.33290550112724304 -0.05107080936431885 -0.33804482221603394 -0.20694072544574738 -0.28365358710289
0.25420036911964417 -0.2935599684715271 -0.13564691985588592 -0.11560887458282429 -0.2797742486000061 0.09173377969356007 0.2401153537905548 0.010602295398712158
0.2739969789981842 -0.0029755234718322754 0.14989295601844788 -13.552656011176698 -23.19599314752034 0.17205390334129333 -6.741874812022519 -25.8674970294554
0.13060730695724487 0.044810742139816284 -0.0762065052986145 -0.1719808429479599 -0.09304174780845642 0.19233176112174988 -0.1913144439458847 -0.34202685952186584
0.31216874718666077 -0.2851947844028473 -22.025788473145404 20.205094239600744 80.49776114087936 -12.003741156552472 16.604294194757358 88.7076061767777
-0.2913840115070343 0.17061570286750793 -125.3077510479485 -133.2728978646305 13.140604300717802 -68.29371423716582 -30.646499284412943 14.083215373052802
-0.22480382025241852 0.3227557837963104 -0.044190794229507446 -0.2865429222583771 -0.26006704568862915 -0.19494304060935974 0.24306830763816833 -0.18301168084144592
-0.11132293939590454 -0.09078821539878845 -0.17646817862987518 -0.26299333572387695 -0.19594068825244904 -0.11511243879795074 -0.29181262850761414 -0.16759319603443146
-0.2781965434551239 0.3125857412815094 -111.93390078176728 -115.2496561232998 18.75147137510844 -60.76297661848422 -25.26507461171555 21.134518903064965
0.3227773606777191 0.2227170765399933 -0.008836030960083008 -53.6328087545255 -95.7246698543363 0.06419122219085693 -27.243481619130744 -106.04011744097784
0.23311296105384827 0.173540860414505 -0.19582457840442657 -0.27163419127464294 0.032640159130096436 0.11060672998428345 0.15684106945991516 -0.2614729404449463
0.045490264892578125 0.33736059069633484 -239.67912435652644 -237.29060027128816 57.654200013386884 -130.63981423962377 -48.59604889338269 64.33771868134234
-0.0792820155620575 0.25228187441825867 0.059676676988601685 -0.1336020976305008 -0.0588533878326416 -0.2486875206232071 -0.02085939049720764 -0.25284135341644287
-0.353403776884079 0.2670697867870331 -0.16140959016547743 -0.285581305066879 0.0994095504283905 0.005044943994401513 0.19721937834693212 -0.23624980449676514
0.017140448093414307 0.14920327067375183 -0.42157640597855073 -0.23212569010369302 0.07252004742622375 -0.04255098289307729 -0.2585263650158994 -0.25082874298095703
0.2653762400150299 -0.18792933225631714 -0.05599150061607361 -67.32174480561656 -119.17047183807928 0.1644500195980072 -34.3396059252502 -132.32012609862937
00000000: 0000 0080 5757 b83f 0000 0000 36eb 9bbf
00000010: 0000 0000 bca5 943f 0000 00e0 524e d53f
00000020: 0000 0000 f425 aabf 0000 00c0 86a2 d5bf
00000030: 0000 00a0 087d cabf 0000 0060 6127 d2bf
00000040: 0000 00a0 d144 d03f 0000 00c0 afc9 d2bf
00000050: dbc5 4ad6 e05c c1bf 9ee9 750f 8b98 bdbf
00000060: 0000 0040 d2e7 d1bf 45e9 b86f dd7b b73f
00000070: ab21 e693 19bc ce3f 0000 0000 a8b6 853f
00000080: 0000 00a0 2a89 d13f 0000 0000 2060 68bf
00000090: 0000 0040 b12f c33f 2ae2 8bba f51a 2bc0
000000a0: 08d7 5e9b 2c32 37c0 0000 00c0 dc05 c63f
000000b0: 9373 dd07 aef7 1ac0 5ae3 0a49 14de 39c0
000000c0: 0000 0080 bdb7 c03f 0000 0000 6ff1 a63f
000000d0: 0000 0000 4582 b3bf 0000 00e0 7703 c6bf
000000e0: 0000 0080 95d1 b7bf 0000 00c0 539e c83f
000000f0: 0000 00e0 fd7c c8bf 0000 00a0 c4e3 d5bf
00000100: 0000 00a0 92fa d33f 0000 00a0 a140 d2bf
00000110: f6c5 c812 9a06 36c0 e5ae 5b0e 8134 3440
00000120: fa52 8b51 db1f 5440 8c15 625c ea01 28c0
00000130: 40a5 3b06 b39a 3040 4ded 6a6b 492d 5640
00000140: 0000 0020 09a6 d2bf 0000 0040 bcd6 c53f
00000150: e88f 7331 b253 5fc0 8f77 4d94 bba8 60c0
00000160: 1385 7249 fd47 2a40 cbbf cc36 cc12 51c0
00000170: e570 23fa 80a5 3ec0 8c92 9334 9b2a 2c40
00000180: 0000 0020 5fc6 ccbf 0000 00e0 07a8 d43f
00000190: 0000 0000 2da0 a6bf 0000 0020 b856 d2bf
000001a0: 0000 0040 f0a4 d0bf 0000 00c0 e4f3 c8bf
000001b0: 0000 00c0 dc1c cf3f 0000 0040 ed6c c7bf
000001c0: 0000 0000 a97f bcbf 0000 0080 e53d b7bf
000001d0: 0000 0060 8296 c6bf 0000 0000 e2d4 d0bf
000001e0: 0000 00a0 9514 c9bf 0000 0040 0278 bdbf
000001f0: 0000 00e0 0ead d2bf 0000 00a0 b173 c5bf
00000200: 0000 00e0 f8cd d1bf 0000 00a0 6701 d43f
00000210: 8ed9 c807 c5fb 5bc0 6734 ad5d facf 5cc0
00000220: 8df8 936d 60c0 3240 4e00 c437 a961 4ec0
00000230: 7551 04ee db43 39c0 9a5b b1d4 6f22 3540
00000240: 0000 0060 62a8 d43f 0000 0040 fe81 cc3f
00000250: 0000 0000 a018 82bf 9ea7 94e0 ffd0 4ac0
00000260: 6031 abfd 60ee 57c0 0000 0000 d66e b03f
00000270: fb57 b7cf 543e 3bc0 f03f be48 9182 5ac0
00000280: 0000 0040 a5d6 cd3f 0000 0040 9636 c63f
00000290: 0000 00a0 c710 c9bf 0000 0060 7462 d1bf
000002a0: 0000 0000 36b6 a03f 0000 0000 b950 bc3f
000002b0: 0000 0040 5e13 c43f 0000 0000 f9bb d0bf
000002c0: 0000 0000 804a a73f 0000 00e0 5097 d53f
000002d0: 57a6 0063 bbf5 6dc0 86ac f098 4ca9 6dc0
000002e0: 0c45 77d3 bcd3 4c40 6056 b65b 7954 60c0
000002f0: a4f2 8354 4b4c 48c0 45e7 d02e 9d15 5040
00000300: 0000 0080 d34b b4bf 0000 00e0 6225 d03f
00000310: 0000 0000 f18d ae3f 0000 00a0 df19 c1bf
00000320: 0000 0000 0822 aebf 0000 0020 fed4 cfbf
00000330: 0000 0000 2a5c 95bf 0000 0080 8d2e d0bf
00000340: 0000 00e0 2a9e d6bf 0000 00e0 ab17 d13f
00000350: 25c0 82c7 11a9 c4bf a11e 67cf f646 d2bf
00000360: 0000 0080 e772 b93f ad2b 75d7 01aa 743f
00000370: 639a 110e 7c3e c93f 0000 0000 6f3d cebf
00000380: 0000 0000 448d 913f 0000 00c0 1719 c33f
00000390: a85b 1c9b 1bfb dabf f944 c76b 4bb6 cdbf
000003a0: 0000 0080 ac90 b23f e778 e00f 3ec9 a5bf
000003b0: 3569 b92a b28b d0bf 0000 0000 940d d0bf
000003c0: 0000 00a0 ecfb d03f 0000 0080 110e c8bf
000003d0: 0000 0000 ebaa acbf fc71 8677 97d4 50c0
000003e0: 215c b602 e9ca 5dc0 0000 00c0 b20c c53f
000003f0: 1c3d fb34 782b 41c0 b286 1679 3e8a 60c0

net.4.bias f8 [16]
-0.1280735582113266 -1.2925937354964632 -0.4641871148347855 -0.06863509595394135 -60.40063994375847 -343.83732707409405 -0.3207757771015167 -0.18664613366127014
-307.6006058628146 -0.3767706251144409 -0.11259230971336365 -658.4461109826524 -0.2453899085521698 -0.2647035378217697 -0.45599532425403594 -0.9026437306404114
00000000: 0000 00e0 b664 c0bf 6d8c cfc4 76ae f4bf
00000010: f628 5cdf 3db5 ddbf 48e1 7ad4 1192 b1bf
00000020: fbf4 6f2b 4833 4ec0 a1f4 12b1 657d 75c0
00000030: 0000 0020 9787 d4bf 0000 0040 05e4 c7bf
00000040: 31a9 e414 9c39 73c0 a470 3d8a 021d d8bf
00000050: 0000 0080 d9d2 bcbf 0787 a2a2 9193 84c0
00000060: 0000 00c0 ef68 cfbf b81e 851b e7f0 d0bf
00000070: 3333 3303 072f ddbf ae47 e11a 75e2 ecbf

out.weight f8 [1, 16]
-0.11313825845718384 0.07287508098920185 167.76789414291073 0.1539947283267975 -38.250053322461554 113.26804127716933 -0.04649406671524048 0.16633892059326172
94.13876073118871 369.80030763594374 -0.0371929407119751 190.21277441187894 0.0591922402381897 0.05190481040524865 -0.2228868601028551 83.8592123820412
00000000: 0000 0000 a1f6 bcbf c3be 8af9 f0a7 b23f
00000010: eed2 bc96 92f8 6440 90c2 f568 19b6 c33f
00000020: 401d 4dbf 0120 43c0 e7da 9996 2751 5c40
00000030: 0000 0000 12ce a7bf 0000 0000 984a c53f
00000040: 2c9b b074 e188 5740 e131 610f ce1c 7740
00000050: 0000 0000 f40a a3bf 438e 480c cfc6 6740
00000060: 0000 0000 724e ae3f c228 646e 4493 aa3f
00000070: 31c9 6c7f 8e87 ccbf db4b ee55 fdf6 5440

out.bias f8 [1]
9.01222799897203
00000000: 5c5c 8fbf 4206 2240
