Homework/DL/checkpoint.pth (torch_old, 8124 bytes, 3 tensors)

weight f4 [20, 15]
000000 97 89 09 be 2c a5 c0 bd 1b 4a 41 be f3 40 bc bb
       -0.13431393 -0.09406504 -0.18875925 -0.0057450472
000010 21 9f 20 be 01 5a 6b 3e 45 5c 0f 3e eb 6a 23 be
       -0.15685703 0.22983553 0.14000042 -0.15958755
000020 a9 ee 4c 3e aa 79 76 3e 55 30 83 be 08 f8 49 be
       0.20012917 0.24069849 -0.25622812 -0.19723523
000030 9f d9 af bd 91 02 30 3e 1f b0 50 be ea 3a 44 3e
       -0.0858643 0.17188479 -0.20379685 0.19163099
000040 89 a2 93 bd 61 6b 6e 3e eb 7c 15 3d ae ba 63 3d
       -0.072087355 0.2328315 0.036496084 0.055597953
000050 61 20 f3 bd 26 8b 80 be 18 2f b0 3d 01 76 61 be
       -0.1187141 -0.25106162 0.086027324 -0.22017671
000060 c2 fe 4f be fa 9f c0 3d 9f c9 4b 3e 48 a6 c8 3d
       -0.20312026 0.09405513 0.19901131 0.09797341
000070 14 28 87 be 6f f2 9f 3d 62 a2 51 3e a9 79 ce bd
       -0.26397765 0.078099124 0.204721 -0.100817986
000080 52 e3 92 3d ec d2 49 be 89 3f 19 3d ce f0 71 3e
       0.07172264 -0.19709367 0.037414107 0.23627016
000090 57 da 07 3e 46 2e 2a 3e 0c 2e b7 3d d3 68 0b 3e
       0.13266884 0.16619214 0.089443296 0.13614206
0000a0 53 26 c9 3d eb 83 05 be 69 d6 7e 3e a4 83 1b bd
       0.09821763 -0.13038604 0.24886478 -0.03796734
0000b0 b5 ad a3 bd 0a 16 15 be 9e 51 b5 3d 21 33 0b 3d
       -0.07992116 -0.14559188 0.08853458 0.033984307
0000c0 ae db 99 3c ef 4f 1b be 35 71 1b 3e 31 78 6b 3e
       0.01878151 -0.15167211 0.15179904 0.22995068
0000d0 9f ce 4b 3e 9a c6 77 be 8a 4f 1e be 2c 80 59 3e
       0.19903038 -0.24196854 -0.15460029 0.212403
0000e0 f8 07 5b be 09 b9 78 3e b7 c2 63 bd 01 50 3c 3c
       -0.21389759 0.24289335 -0.055605616 0.011493684
0000f0 ff 9b 08 be ba 42 6e 3e de 75 6b be 1b 37 37 be
       -0.13340758 0.23267642 -0.22994182 -0.17892115
000100 8a 8c 7f 3c f1 7f 98 3d ea 8b d0 3d 9f e6 5e 3d
       0.015597472 0.07446278 0.101829365 0.054419156
000110 8d b1 eb 3d 22 17 d4 bd 08 92 c4 3d a0 52 ca bd
       0.115084745 -0.10355975 0.09598166 -0.09879041
000120 ee 10 73 3e 56 ad 05 3e 85 9b 78 be f9 2f 4a 3d
       0.23736927 0.13054404 -0.24278076 0.049362157
000130 ad 44 56 3e 7a 57 6b 3e 42 27 2c be ab 31 3e be
       0.20924635 0.22982588 -0.1681185 -0.18573634
000140 33 3e 32 3e b5 0d 67 3e 8e 66 79 3e 68 e5 67 be
       0.1740654 0.22563823 0.24355528 -0.22646105
000150 5f 4a e3 3d 2c f3 0b bd 20 8a 1a be 31 98 67 3e
       0.110981695 -0.034167454 -0.15091753 0.2261665
000160 23 c7 0e 3e c5 fb 5e 3e 6d 72 da 3a 75 d6 13 3e
       0.13943152 0.2177573 0.0016666182 0.14437278
000170 6b 51 40 3d e3 e0 83 3e 55 27 80 be 25 f6 90 bd
       0.046952646 0.25757512 -0.25030008 -0.07078198
000180 9a 93 18 be 69 e2 40 be de ff 80 be 99 c4 6a 3e
       -0.14900056 -0.18836369 -0.2519521 0.22926559
000190 46 b9 64 bc 4f 96 2e be 5d cd f6 bd fc 3b b4 3c
       -0.013960188 -0.17049526 -0.12050889 0.022001259
0001a0 6e 6d a5 3d 12 70 16 3e 92 61 e1 bd 15 42 6f be
       0.08077513 0.14691189 -0.11004938 -0.23365052
0001b0 03 87 a5 bd ca 2e e7 3d 79 63 34 3e e6 55 92 3d
       -0.08082392 0.11288221 0.17616071 0.0714529
0001c0 db bb 6a 3e 1b f9 59 3e 50 f3 f4 bc 74 53 11 be
       0.22923224 0.21286432 -0.029901177 -0.14191991
0001d0 82 48 3c 3e 5c 3c 95 3b 54 e1 62 be 57 1e 24 3e
       0.18387035 0.0045543145 -0.22156268 0.16027199
0001e0 fe 33 76 be 6e 22 c2 3d 71 7b 3a be d7 3a 95 bb
       -0.24043271 0.09479223 -0.18211152 -0.0045541334
0001f0 a6 3c 2b 3e 42 36 35 3c 91 8d ef bc 03 68 45 3e
       0.16722354 0.011060299 -0.029242309 0.19277959
000200 79 1c 44 3e 6e 73 10 3e 3b b0 09 be 5d c7 81 bd
       0.19151486 0.14106533 -0.13446133 -0.06336854
000210 4a 9f ad bd 1d dc 3a bd 5a 2c 76 be ee fd 63 3e
       -0.084776476 -0.045620073 -0.24040356 0.22264835
000220 20 2f 4b be e2 63 81 be 78 98 df bd 9a 7d 0c be
       -0.19842196 -0.25271517 -0.10917753 -0.13719788
000230 f0 fe 75 3d a0 ee 73 bd c4 fe 25 bd 70 65 28 3e
       0.06005758 -0.059553742 -0.040526167 0.16444945
000240 b4 64 b2 bd c2 35 06 3e 12 f9 2e be 20 e2 36 3d
       -0.08710614 0.13106444 -0.170872 0.044649243
000250 56 b0 6f be 2a dd 05 3e 32 a3 12 3d 34 66 77 bd
       -0.2340711 0.13072649 0.035800166 -0.060400203
000260 a5 06 f3 bd 49 a6 54 3e 51 16 2b 3e e2 a4 61 be
       -0.11866502 0.20766558 0.16707732 -0.22035554
000270 2e 41 d6 bd de 2b 40 3e dd 79 55 be 33 3c 3c 3e
       -0.10461651 0.18766734 -0.20847268 0.18382339
000280 83 94 0a 3e d8 48 49 3e af cb 86 3b 01 49 41 3e
       0.13533215 0.19656694 0.0041136364 0.18875505
000290 7c 75 2f 3b 93 7f 97 3d e7 d9 50 be c9 f0 b7 3c
       0.0026772907 0.0739738 -0.20395623 0.022453682
0002a0 39 95 33 3e 3e b8 09 bd 0f 26 a6 bd fe 8c 8a 3e
       0.17537393 -0.033622973 -0.08112728 0.27060694
0002b0 9e c3 1d be e8 d5 c5 3c b4 2d d8 bd 0b 70 35 3e
       -0.15406653 0.02414985 -0.10555592 0.17718522
0002c0 c6 46 26 3b e0 4e 4a 3e f2 c4 2a be ec 79 a9 3d
       0.0025371774 0.19756651 -0.16676691 0.08275208
0002d0 c5 95 a4 3b 15 98 6b 3e 87 16 00 3e 8a c2 80 be
       0.0050227367 0.23007233 0.12508593 -0.25148422
0002e0 08 2f 96 3c 40 98 48 be 03 30 7c be 1d ad e6 3d
       0.018332973 -0.19589329 -0.2462769 0.112634875
0002f0 6d 0e 52 be 69 aa 19 3e 1c d2 1a be 0c d2 59 bd
       -0.20513315 0.15006413 -0.15119213 -0.053178832
000300 6f 55 ca 3c 7c 2d af 3c de 0e 07 be 1f d9 5c be
       0.024698941 0.021383993 -0.13189265 -0.215672
000310 af 76 5a be 20 40 8b bd 55 d5 95 bd ed e3 44 be
       -0.21334337 -0.0679934 -0.073160805 -0.19227572
000320 e3 70 7c be cb c9 6c 3e 48 2b 65 be 7f ff 4b bd
       -0.24652438 0.23123853 -0.22379792 -0.049804207
000330 8b 51 31 3e 37 d0 b0 bd a7 7b bc 3d 07 02 3d be
       0.17316262 -0.08633464 0.09203272 -0.18457805
000340 68 ac 4b be 09 ed 72 bd 15 a4 93 3d 75 71 b9 bd
       -0.19889987 -0.059308086 0.072090305 -0.09054843
000350 dd f2 45 bd 01 c2 94 3d 99 c2 69 3e a5 77 98 bd
       -0.048327316 0.07263566 0.2282814 -0.074446954
000360 b4 a0 0a bd 23 1d 69 3e e7 88 84 bd 01 e0 05 be
       -0.033844665 0.22765021 -0.064714245 -0.13073732
000370 96 b8 33 be cb 73 9b 3d 3d 07 64 bc 0c 02 21 be
       -0.17550883 0.07590445 -0.013917741 -0.15723437
000380 0b 3c a7 3d b4 78 e7 3d 1c db 3a 3e 5d da 01 be
       0.08165749 0.11302319 0.18247646 -0.12680955
000390 c8 c7 2f be 54 91 cc 3d e0 04 59 bd 98 00 45 3e
       -0.17166054 0.09988657 -0.052983165 0.19238508
0003a0 00 8f 86 3d 66 3c 03 3e 1a d8 ff bd f4 96 01 3e
       0.06570244 0.12816009 -0.1249239 0.1265524
0003b0 68 0c 7b 3d 10 fa 47 be 8c d0 26 3e d0 da 92 3c
       0.06129113 -0.19528985 0.16290492 0.017926604
0003c0 b2 02 1c be e7 55 37 3d 41 bc 0b be 9e b5 bb 3d
       -0.15235403 0.044759657 -0.13646032 0.091655
0003d0 7f 82 82 be 55 6a eb bd d7 53 94 bd dc d3 1e be
       -0.25490186 -0.114948906 -0.07242554 -0.15510505
0003e0 a5 b4 aa 3d 53 06 2c 3e 26 21 0c 3e 22 a6 96 bc
       0.083352365 0.16799287 0.1368452 -0.018389765
0003f0 b0 c6 2c 3e 0a a8 6c 3e 33 f5 e1 bd af ff 77 3e
       0.16872668 0.23110977 -0.11033096 0.2421863

bias f4 [20]
000000 af 7d 47 3e 8e fd 5a 3e 0f e4 7e 3e c9 15 1a be
       0.19481538 0.21385786 0.24891685 -0.15047373
000010 20 ab df bd 2f 74 3c be b7 d8 ed bd 8f 48 59 3d
       -0.109213114 -0.18403696 -0.11613601 0.053047713
000020 ce 1b 62 3e d0 49 dc 3c 12 de 26 be 13 cb 58 3e
       0.22080919 0.026890665 -0.1629565 0.21171217
000030 8d 7b 66 3e ca 9e bd bd b7 40 0f 3e 92 cf 3b be
       0.22508068 -0.09258802 0.1398953 -0.183409
000040 75 e0 2e 3e 6d d8 0e 3d bb e1 dc bd bc 77 09 3b
       0.17077811 0.03487437 -0.10785242 0.0020975908

weight f4 [1, 20]
000000 25 71 49 3e f7 4e 46 3e 82 b5 55 3b 8b 81 08 3e
       0.19672067 0.1936606 0.0032609408 0.13330667
000010 10 18 59 bd 2c 35 2e 3b 97 b5 88 3b 2b 28 93 bd
       -0.053001463 0.0026581986 0.004172038 -0.07185396
000020 e3 06 53 bd 5c e2 b4 3d 10 85 d0 bd aa 8c a4 bd
       -0.05152024 0.08832237 -0.1018163 -0.08034642
000030 1e 0a 97 3e cc 34 ae bc ae fe f9 3d 00 20 55 3b
       0.29499906 -0.02126541 0.122067794 0.0032520294
000040 7c 2f 98 bd 2e 55 10 3e c0 1a 2f be ad 24 8a 3e
       -0.07430932 0.14094993 -0.17100048 0.26981106
